src/gcdf-training/resource/models/BP_8.pt (torch, 21482 bytes, 16 tensors)

weights f4 [512]
00000000: 441c 5b3f 6e7f 783f d218 6a3f 967f 683f
00000010: ba82 783f eb74 3b3f 0882 993f 14d6 503f
00000020: 1c30 7c3f bbf6 b73e 30ff 743f f08c 4e3f
00000030: 3213 6fbf fdc7 2b40 dacd 12be 4bcd 993f
00000040: 5a78 bf3d 499a bf3e c1cc f13e b63a 613f
00000050: 9a5d 013f f3fd 623e 955d 103f ae48 ba3e
00000060: 5421 ec3e 2a4d 163f 3b64 2a3f 98e9 863e
00000070: a896 603e ff88 713f 31ce 273f ff8f df3e
00000080: 140e 913f 88f0 ea3b 13ad 513f fa62 4f3e
00000090: c90f 873f 3e13 ec3f d678 b3bf 069e 723e
000000a0: 4a49 95be c6eb 333f 0ed8 d03e 5349 533f
000000b0: 4eae 7fbe f13a ac3e d2c7 8d3f e731 2e3f
000000c0: 6c36 933f a6be 103e 0cb6 983f bfe6 0d3f
000000d0: 2ec7 94be 8ebb 0a40 a728 873d fc27 763f
000000e0: a5ea 4c3f 3947 883f a6a6 4d3f 24a3 723f
000000f0: 68c7 6f3f b24c 563f b28c 883f d703 673f
00000100: be99 693f dca5 623c 840d d63f 6c80 3fbf
00000110: f645 3a3f f1a3 f03f d19f a9bc 94bd a23f
00000120: b68a 10bf 9d1a 753f cc11 d2bf 59c4 6240
00000130: a949 06bf 54e2 963e e337 8bbe bced c4be
00000140: f60c 4c3f ac50 a03f 379c c03e eb91 05c0
00000150: 6e2a dd3e 471d 03bf 4798 6a40 f248 31be
00000160: 470f 343f e58f 4f3f 1385 a9bf 18e1 2840
00000170: 74a5 1e40 b271 acc0 d3d5 1440 4b53 a73f
00000180: 86fc d93e 4848 f53f b593 06c0 6bfc 9c3f
00000190: 83d8 ba3f 5db8 a1c0 1662 4840 3a64 3640
000001a0: 06f8 4d3f 6ca6 7a3f e583 923e 2cd0 f3be
000001b0: 6ddb f93e d74f 4ebf 9345 8540 de06 cbbf
000001c0: f8a5 c9be fe4c 483f 40a5 96bf edf0 1e40
000001d0: b42d 56bd 9d1a 483e 2870 16bf 3ae9 743e
000001e0: dabb 663f d5d3 6f3d 0557 cb3f f9e7 d7be
000001f0: 0a66 d73e 613d e63f 630a a73e d1c3 883f
00000200: e798 cb3e b0c8 8a3f 8e37 1d3f 52e1 233f
00000210: c239 a13f 4993 28bf b382 9e3f 103e b83d
00000220: 7896 1240 05b5 8d40 cb98 8f3f 87d5 a040
00000230: 3078 6b40 d6e2 9bc0 b321 b740 d891 66be
00000240: cd3c 7bbf 8eee 49c1 3a23 3940 b5ae 98c1
00000250: 566a e0bf d829 2841 7a84 2ac1 032d c840
00000260: e7b0 88bf d390 37bf de18 2c41 816a 02c0
00000270: e29a 893f a032 1441 3c84 c1c0 e12b d5c0
00000280: 0c65 b6bf ea11 7fbe 8c60 2641 282f 12c0
00000290: 4c2d 283f 389a 1841 6f01 dec0 adf1 ebc0
000002a0: 96c7 11bf 0cb3 56c1 b964 4940 9426 8ec1
000002b0: 9d23 00c0 c69d 2241 03f5 33c1 142a f240
000002c0: c5fc c53f 4b52 aa40 0d5c 613f d8f8 8140
000002d0: 10de 7040 332b 85c0 61c3 b040 d50c 1bbf
000002e0: e28c 493f f22d 503f 8f17 30be 3fa2 0640
000002f0: 8e10 2e3f c73e 9ebe 4ae3 253f eb05 8e3e
00000300: 301b 113f 4c14 03bf b532 3d3e c82f f43d
00000310: 40ec aabd e23d 3340 88ca a7bf 1f58 433f
00000320: 5f53 b6bf f2a4 93bf bf12 c2c0 6bc2 bdbf
00000330: fc34 e5bf fb6e 79c0 62b3 df3f 4a21 d23f
00000340: 6659 e63f db19 ce40 c02b 9a41 0a9c e640
00000350: c075 8440 f67e e540 08ac b4c0 45c6 d9c0
00000360: 61bd e33e 3b01 a63f b7ca b2c1 cf2c 2241
00000370: b506 bcc0 b63e 87c1 ba9d 2e41 73d0 e040
00000380: 9d4c 95be bb25 1440 9bfb afc1 f8e6 2341
00000390: 5896 bdc0 9d3c 76c1 da0f 3741 7e74 cb40
000003a0: 0321 2a40 14a7 b540 200f 9841 7a5e cc40
000003b0: 4368 7040 8032 f740 e03b b8c0 b4dd cbc0
000003c0: 632f 95bf 8b44 b9bf c9aa afc0 d2e2 c4bf
000003d0: be4f 32bf 03dc abc0 6581 2540 d928 3e3f
000003e0: 76ca b13c 6d2f 2b3e dae9 e93e f326 2dbf
000003f0: 10a4 3cbf 22e8 4c40 8fa9 38bf fa98 5c3f
0.85590005 0.9706944 0.9144412 0.9081968 0.9707447 0.7322528 1.1992807 0.8157666
0.9851091 0.35930428 0.95701885 0.80683804 -0.93388665 2.6840813 -0.14336339 1.2015775
0.09349127 0.37422398 0.47226527 0.8798021 0.5053345 0.22167186 0.56392795 0.36383575
0.46119177 0.58711493 0.6655919 0.26350093 0.21932471 0.94349664 0.65549 0.43664548
1.1332421 0.007169787 0.81904715 0.202526 1.0551692 1.8443372 -1.4021251 0.23693094
-0.29157478 0.70281637 0.40789837 0.8253376 -0.24968836 0.3363872 1.1076605 0.68044895
1.1500983 0.14135227 1.1930556 0.55430216 -0.29058212 2.1676974 0.06599551 0.9615476
0.8004554 1.0646735 0.8033241 0.9478018 0.93663645 0.8371078 1.0667937 0.90240234
0.91250217 0.013833489 1.6722875 -0.7480533 0.72763 1.8800031 -0.02070609 1.2714105
-0.56461656 0.95743734 -1.6411681 3.543234 -0.52456146 0.2946955 -0.27191076 -0.38462627
0.79707277 1.2524619 0.37619182 -2.0870311 0.43196434 -0.5121655 3.6655443 -0.17312983
0.7033581 0.8107894 -1.3243736 2.6387386 2.4788485 -5.388879 2.3255508 1.3072294
0.42575473 1.9162683 -2.1027653 1.2264532 1.4597324 -5.0537553 3.1309867 2.8498673
0.8045658 0.9791019 0.28616253 -0.4761976 0.4880022 -0.80590576 4.164743 -1.5861471
-0.39384437 0.7824248 -1.176918 2.483455 -0.05228968 0.19541402 -0.58764887 0.23917094
0.9013039 0.05855163 1.5885931 -0.4216917 0.42070037 1.7987481 0.32625112 1.0684758
0.39765093 1.0842495 0.61412895 0.64015687 1.2595751 -0.6584974 1.2383636 0.089962125
2.290434 4.428347 1.1218504 5.0260653 3.6792107 -4.87144 5.7228637 -0.22516572
-0.9813965 -12.620741 2.892775 -19.085306 -1.7532451 10.510216 -10.657343 6.2554946
-1.0678986 -0.7170536 10.756071 -2.0377505 1.0750391 9.26236 -6.047392 -6.6616063
-1.4249587 -0.24909177 10.398571 -2.2841282 0.6569412 9.537651 -6.937675 -7.3732514
-0.5694517 -13.418713 3.1467726 -17.768837 -2.0021737 10.163519 -11.247317 7.5676365
1.5467764 5.3225455 0.88031083 4.0616264 3.7635536 -4.1615233 5.52385 -0.60566455
0.78730595 0.81320107 -0.17196487 2.1036527 0.6799401 -0.3090727 0.6479994 0.2773889
0.5668211 -0.51202846 0.18476374 0.11923176 -0.08345842 2.800652 -1.3108683 0.7630634
-1.4244193 -1.1534712 -6.0647883 -1.4824957 -1.7906795 -3.8973987 1.7476618 1.6416409
1.7996032 6.440656 19.271362 7.2065477 4.139374 7.171748 -5.646 -6.805453
0.44480422 1.2969126 -22.348982 10.13594 -5.8758187 -16.90562 10.913507 7.0254455
-0.29160014 2.314803 -21.997854 10.243889 -5.9246025 -15.389798 11.44137 6.35797
2.6582649 5.6766453 19.007385 6.386533 3.7563636 7.7249146 -5.757309 -6.3708134
-1.1655086 -1.4474043 -5.489598 -1.538172 -0.69652927 -5.370607 2.5860226 0.7428108
0.021702986 0.1671731 0.45686227 -0.67637557 -0.7368784 3.2016683 -0.72133726 0.86170924

offset f8 [3]
00000000: 1d00 0000 4063 293f d6ff ffff 1f8b 143f
00000010: 97ff 10a0 69de b53f
0.00019369274377822955 7.836706936359349e-05 0.08542499692793935

weights f4 [512]
00000000: 8024 a93f 2301 3a3f c7aa aa3f fa78 303f
00000010: 4fab 0d3f 3ce7 8c3f a3f1 6c3f b9ed 993f
00000020: 5f05 903f 636d a93f 5a1f b43e 28fe 263f
00000030: 1245 033f ce39 ed3c ec51 953f cfa2 933f
00000040: e7bd a73f ce15 203f 6c82 ec3f 8dfc 8d3e
00000050: c5e3 d53f c241 b33f 5b28 503f 80c8 8d3f
00000060: abd2 b03f 9470 903f f517 103f c7f4 773f
00000070: a849 ac3e 95df cc3f 6704 963f 0a9e c63f
00000080: 5c68 a13f 9115 b93f ee86 933e 73a6 b53f
00000090: 37c1 fb3e 5252 7bbe cec7 843f 04cb aa3f
000000a0: 6519 a43f 8f63 4a3f 6785 c83f 8d51 803e
000000b0: 70e2 f73f 7524 bb3f 6759 b43f bc13 a53f
000000c0: edcb 993f f338 8a3f 2650 263f 6fe8 fe3e
000000d0: b5e6 a43e 9aaa 023f 99f2 693f c090 963f
000000e0: 8c7f a13f f245 7a3f 728a 6e3f a9e8 693f
000000f0: e145 173f 4816 853f 8161 7d3f b788 a23f
00000100: 75ca 363f 96bc 0e40 d67d 8cbf bc7c c3be
00000110: 04d7 2540 cb45 b0bf 5977 b73f a36c 803f
00000120: 8ba5 893f fa99 323f e61c a3bf 455f 6f40
00000130: be5d 2a40 4f8c 873f ab90 473f 7774 853f
00000140: fe95 9b3f 388b b13f cfe4 953f d5a4 62c0
00000150: 5f5f 443e a48d 00c0 953f 283f 2ea5 713f
00000160: 460b 5e3f 8781 1f3e dd15 4740 6ffb cd3e
00000170: 85d2 bebf f0f9 4b40 9d4c e23f 3a00 b93f
00000180: 214e 9e3f 630a a23e ac8f 4b3f 87d0 bc3f
00000190: 6f7d 35bf 425f 4b40 2039 c7be eac3 3e3f
000001a0: 7413 983f 1b1a 913f 537b b03f 6f4b 33c0
000001b0: 93fe abbf 4554 2e3f 825b 1e3f 6dc8 c63f
000001c0: e15b 723f 3a9e 033f e05d 22bc 3b39 3f40
000001d0: be9c 0540 0cc5 983e 8c34 583f 3d61 723f
000001e0: 4d04 823f 6fde 953f 8e6e 983e 0863 69be
000001f0: a009 173f 7c31 043f 2c13 803f e658 8c3f
00000200: 356e bb3f 1f6a bbbf 4f64 f63f ed0b 8440
00000210: 8828 97c0 2517 9140 3d3d 83bf 8167 613f
00000220: d1bd 3b3f 601d 673f 0212 fb3f cf36 b5bf
00000230: fc6e 20c1 678a 46bf e38d 173f 7739 103f
00000240: 68e6 183f 8f64 c83e 73a8 ffbf 7ee8 6c40
00000250: 6ff3 5841 1bd2 d53f bde0 a13f c755 c33e
00000260: aaf7 813f 2156 3640 47a1 71c0 e861 a83f
00000270: af48 78bf 80ba 7ec0 cc91 733f 9de4 db3f
00000280: 7cba 873f 477b f23f 3cde 7ec0 d705 af40
00000290: c2b9 8bbf e886 a8c0 f456 1340 9083 bd3e
000002a0: 9710 c43e 226d 793f 9d43 0cbf e521 5a40
000002b0: 2ab6 1341 a86e 683f 1ad2 0540 4872 803f
000002c0: 6601 823f f1b3 aa3f ba0b a8be aaf1 4dc0
000002d0: 2897 73c0 eb6d aebf f374 1e3f 156c 2a3f
000002e0: 2724 513f 0afe 263f 1adc 10bf ca65 3a40
000002f0: 963f 4d3f 2dab 70bf d613 7c3f 42e3 3b3f
00000300: 914c d03e 1f07 f13f cad2 3abf 337a 26c0
00000310: 4a45 833f fd03 91bf 2f66 983f e495 623f
00000320: f127 823f 7784 88bf dedb 0e40 c687 3dc0
00000330: 9bd2 5440 45b6 0440 89e5 293e 6acd 793f
00000340: 993b ad3f d88c a1be 9f3e ae40 5d8d 06c1
00000350: 1618 75bf 2b25 6dc0 5836 a2bd 5a14 533f
00000360: 6a95 4f3f 39f0 b5bf 3dea a240 8374 85c0
00000370: dd95 54c0 3680 1e41 6be1 b73e b700 e53f
00000380: 7c45 873f 5f62 f0bf 734c 8040 8caf 63be
00000390: e51e acc0 2120 0840 dc93 0fc0 be9c dbbd
000003a0: 0ef5 6c3f 23a3 893f 64ea 1740 76f7 15c1
000003b0: 9505 8b3f be97 943f c118 1b3f a510 1140
000003c0: 6734 7d3f de0d 07c0 a981 a540 c666 dfbf
000003d0: 4619 71be 8f15 f83f 023f 51be 3fba a73e
000003e0: 3dfb 893f 24cd dbbd fdc9 0940 d073 69c0
000003f0: 8655 e3bf 30dd 4f40 fe59 bdbe 4e66 aa3f
1.3214264 0.72657984 1.3333367 0.68934596 0.5533952 1.1008067 0.9255621 1.2025672
1.1251639 1.3236507 0.3518017 0.6523156 0.5127727 0.028958227 1.1665626 1.153406
1.3104829 0.6253327 1.8477302 0.27731743 1.6710135 1.4004443 0.8131158 1.1076813
1.3814291 1.1284356 0.56286556 0.96857876 0.33649945 1.6005732 1.1720093 1.551698
1.2609973 1.4459707 0.2881388 1.4191421 0.4917085 -0.24543121 1.0373476 1.3343205
1.282025 0.79058164 1.5665711 0.25062218 1.9365978 1.4620501 1.4089783 1.2896647
1.2015358 1.079863 0.64966047 0.49786708 0.32207265 0.5104157 0.913858 1.1762924
1.2617049 0.9776298 0.9318 0.91370636 0.59091 1.0397425 0.98976904 1.2697972
0.71402675 2.2302604 -1.0975902 -0.38181102 2.5912485 -1.3771299 1.4333297 1.0033153
1.0753645 0.697662 -1.2743194 3.7401898 2.6619716 1.0589694 0.7795512 1.0426167
1.2155149 1.3870611 1.1710452 -3.5413105 0.19177006 -2.008645 0.6572202 0.9439267
0.8673595 0.15576755 3.1107094 0.4023089 -1.4907995 3.18713 1.767963 1.4453194
1.2367593 0.3164855 0.795161 1.4751137 -0.7089452 3.177689 -0.3891077 0.7451769
1.1880937 1.1336092 1.3787636 -2.801479 -1.3437065 0.68097335 0.6185838 1.5529915
0.94671446 0.5141331 -0.009910077 2.987868 2.0876918 0.29837835 0.8445518 0.94679624
1.0157562 1.1708506 0.29771847 -0.22791684 0.5899906 0.5163801 1.0005851 1.096463
1.4643008 -1.464176 1.9249362 4.126456 -4.7236977 4.5340753 -1.0253063 0.8804856
0.7333651 0.902792 1.961487 -1.4157351 -10.027096 -0.77554935 0.59200877 0.56337684
0.5972657 0.3913922 -1.9973282 3.7016902 13.559432 1.6704744 1.264671 0.3815138
1.0153706 2.849007 -3.7754686 1.3154879 -0.96985906 -3.980133 0.95144343 1.7179142
1.0603786 1.8943871 -3.982314 5.469463 -1.0916064 -5.266468 2.3021822 0.37014437
0.38293907 0.9743215 -0.5479067 3.4083188 9.231974 0.9079385 2.0909486 1.0034876
1.0156677 1.3336164 -0.32821447 -3.217875 -3.8061008 -1.3627294 0.618972 0.6657117
0.8169579 0.6523138 -0.5658585 2.9124627 0.8017515 -0.94011194 0.9846777 0.7339364
0.40683416 1.8830298 -0.7297789 -2.6012084 1.025552 -1.1329342 1.1906184 0.88509965
1.0168439 -1.0665425 2.2321696 -2.961412 3.3253543 2.0736248 0.16591467 0.9757906
1.3533813 -0.31552768 5.445144 -8.4095125 -0.9573988 -3.7053936 -0.079205215 0.8245293
0.8108736 -1.4213935 5.0910935 -4.1704726 -3.321647 9.9063015 0.35914168 1.7890843
1.056808 -1.878002 4.009332 -0.22234935 -5.3787713 2.126961 -2.2433996 -0.107232556
0.92561424 1.075291 2.373681 -9.372915 1.0861079 1.1608808 0.60584646 2.266641
0.98908085 -2.1102214 5.1720777 -1.7453239 -0.23544797 1.9381579 -0.20434192 0.32759282
1.0779797 -0.10732487 2.1529534 -3.6476936 -1.7760475 3.2478752 -0.3698272 1.3312471

offset f8 [3]
00000000: bd86 f33a d137 37bc 0100 00f0 c53d cabf
00000010: ffff ffcf 81aa 93bf
-1.2586522726129422e-18 -0.20501016825437549 -0.019205120392143723

weights f4 [512]
00000000: 7a68 6b3f c7bb 653f 1f4e e73e 3d33 9c3f
00000010: 3c79 493f f878 183f 590e b43f a1c0 563f
00000020: 91b6 6d3f 7f04 a43e ef32 c33f 6657 763f
00000030: 108c 44bf 1993 4540 7d5f 38bf 2cb6 cc3f
00000040: 37f7 f63e c5b6 7e3f 9209 62c0 67fe 1440
00000050: 3729 3ec0 f9a5 943f 4cfa dc3f 7a31 16be
00000060: d9cb a8be 76eb bebd d6f2 9e3f ccd8 ee40
00000070: ff1e 0ac0 32d8 ed3f 63e3 b5be 0534 8d3f
00000080: ed18 5a3f 80f4 44bf 6d1b c2bf 6ab2 9bbf
00000090: afa9 dbbf 1cba cc3f 12ed eb3f 78b1 bcbd
000000a0: d82e 6f3f 716f b13f 827e c13f 77e6 2c3f
000000b0: 3e20 de3f 4ef1 193f 5202 f0bf 685d 0c40
000000c0: 8782 3f3f e491 ac3f f36d f4bf a37f 8640
000000d0: e219 88be 117a 65bf 6d13 2140 7754 b3bd
000000e0: 57a4 9f3f ad21 863f 4280 a33f 9f30 d23f
000000f0: 97fb 26bf 68b3 0940 3c61 1b3e d7a3 993f
00000100: d0a5 893f 9da6 513f c1c2 493f fd84 3f3e
00000110: f32d dc3e 1573 2340 eebc 42bf 185f bc3f
00000120: 619a 673e fec9 f73f d4f2 a7bf a61c 983e
00000130: f349 4dc0 e8d1 fb3f 5c3c 6540 dbfd d7bf
00000140: daca 87bf c43a 1bbf 43f2 aebf f73f 0641
00000150: 18be b040 c46b 87c0 f4fc 97c0 4cd2 4f40
00000160: c4a2 bd40 5c8a ee40 63ca 60bf e844 b8c1
00000170: 8273 c1c0 3b1b 3241 76bd 2f40 cfa5 a2bf
00000180: 28eb 8ebf 41b4 173f 1c13 9340 a85a 95be
00000190: 960c 2c41 4e77 eebf cf91 bdc0 3443 dc40
000001a0: e3ef d0bf 328f 0840 29dc d6c0 0191 bb3f
000001b0: 608a d23f 0cb3 98bd 5fa3 fa40 9ffd edc0
000001c0: 08b6 1b40 88d1 c0be ae99 6040 5850 ad40
000001d0: 79d6 3fc1 035f 3141 894a eec0 cd93 a640
000001e0: 4758 663f 4dd3 da3f 98a0 02bf 8248 a43f
000001f0: ba96 2b40 c49c 06c0 2885 2540 8a1a 5abd
00000200: 6a95 5c3e 0878 9b3e f9b8 813f ad74 1740
00000210: dd5f 973f b732 fdbf a76b 1840 e2a9 573e
00000220: acb8 3fbf 0fad 633f 9fdc 93c0 af10 313f
00000230: 65b9 b940 fa28 57c0 f89e adbf 0ad5 ce3e
00000240: 2867 b040 cea5 043f 2817 1e41 d3b2 2dbe
00000250: b6e4 7d40 9daf c0bf 009b 7940 bae9 0341
00000260: 49c4 83c1 c74a b4c1 b5ce 0741 9c6d 34c1
00000270: b33e 98bf 8ae7 cf3f fe53 75bf aee0 96c1
00000280: bf07 ab40 b213 fbbf 93eb 1441 8a0e ff3d
00000290: f46f 0341 abac 1fc0 37ed d440 b7e4 0d41
000002a0: 6f61 4440 e3c3 8f40 9620 48c1 59d9 6441
000002b0: bebb 4b41 8fdf 23c2 fbe8 6c40 7c98 4c40
000002c0: 1aef 03c0 acb0 f2bd 114f 2940 a5aa 1cc0
000002d0: 4502 92c0 a7a3 3a41 7980 1640 f0e5 8bc0
000002e0: de44 9f3f 9216 58be a45c 8e40 4b6c f5bf
000002f0: 75f9 0e3f 81a1 473f 3337 e5bf 10ec fa3f
00000300: a941 563f 2629 b13f 4d74 723f edfe dfbf
00000310: 0291 9b3f 6087 353f 132b fb3e 5410 e7bc
00000320: f1bf e83f 26bf 47c0 0772 c240 965f 563f
00000330: baf6 c4c0 34c6 c140 d1f5 42c0 5268 4e40
00000340: 5543 2bc0 12bb 1b41 7db5 21c1 c2f8 c2be
00000350: ac1d 4fc0 2c45 cd3d a403 dc40 5bf8 51c1
00000360: c2e4 1041 2bfe 2e3f 5a0c 19c1 fc3a 9841
00000370: e73e 8640 a2a7 75c1 ccd1 44c1 2a11 bd41
00000380: 8b16 05c0 2094 0141 bb5a 9a40 7c64 83c1
00000390: ce78 96c1 482a 0c42 b4ac b9bf d64e 89c1
000003a0: 76f2 14c0 acfa ffbd 988a 92c0 aec1 e040
000003b0: a99d c740 e7aa 21c1 724f 5f40 7301 9f40
000003c0: 4c8b 2040 8128 953f 35d1 2e40 b22d d4be
000003d0: 32e2 dbbf ed25 2540 4dc9 1dc0 3c70 b93f
000003e0: 5281 9c3f 43ca a93f f014 9bbe 8a17 0940
000003f0: f8e0 6e3c 5334 23be 9328 1140 d12b b8bd
0.91956294 0.8973965 0.4517679 1.2203137 0.78700614 0.59559584 1.4066879 0.8388768
0.928567 0.3203468 1.5249919 0.9622711 -0.7677622 3.0871031 -0.72020704 1.5993094
0.48235485 0.99497634 -3.5318341 2.3280275 -2.9712656 1.1613151 1.7263885 -0.14667311
-0.32968023 -0.09322254 1.2417858 7.4639645 -2.1581419 1.8581603 -0.35525045 1.10315
0.85194284 -0.7693558 -1.516462 -1.2163823 -1.7161158 1.5994296 1.8431723 -0.09213537
0.9343085 1.3862134 1.5116732 0.6753916 1.735359 0.60133827 -1.8750708 2.193201
0.74808544 1.3482022 -1.9096054 4.2030807 -0.26582247 -0.89639384 2.5168107 -0.08756345
1.2472028 1.0479027 1.2773516 1.6421088 -0.65227646 2.151575 0.1517381 1.2003125
1.0753727 0.81894857 0.78812796 0.18703075 0.43003806 2.553899 -0.76069534 1.471652
0.22617485 1.9358518 -1.312098 0.29709357 -3.2076385 1.9673433 3.581809 -1.6874346
-1.060878 -0.60636544 -1.3667682 8.390616 5.523205 -4.231905 -4.749628 3.2472105
5.926119 7.4543896 -0.8780882 -23.033646 -6.04535 11.131648 2.7459388 -1.2706851
-1.1165514 0.5925942 4.5960827 -0.29170728 10.753073 -1.8630159 -5.924049 6.8832035
-1.6323208 2.13374 -6.714375 1.4653627 1.6448479 -0.074560255 7.8324428 -7.4372096
2.4329853 -0.3765986 3.5093799 5.4160576 -11.9898615 11.085696 -7.4465985 5.205542
0.8997845 1.7095734 -0.51026297 1.2834628 2.6810746 -2.1033182 2.5862522 -0.053247966
0.21541372 0.30365014 1.0134574 2.3664963 1.182613 -1.9781102 2.3815706 0.21060899
-0.7489116 0.8893594 -4.6206813 0.6916608 5.803881 -3.361876 -1.3564138 0.4039691
5.5125923 0.518155 9.880653 -0.16962747 3.9670844 -1.5053593 3.9000854 8.244562
-16.470842 -22.536512 8.487966 -11.27676 -1.1894134 1.6242535 -0.95831287 -18.859707
5.3446956 -1.9615386 9.307513 0.12453945 8.214832 -2.4949138 6.653957 8.868339
3.0684469 4.492662 -12.507956 14.303063 12.7333355 -40.96832 3.70172 3.196807
-2.0614686 -0.11850104 2.6454508 -2.4479153 -4.562777 11.664954 2.3515913 -4.3718185
1.2442892 -0.2110236 4.4488087 -1.9173673 0.5584939 0.7798081 -1.790747 1.960329
0.8369394 1.3840683 0.9470871 -1.7499672 1.2153628 0.7090969 0.490563 -0.028206028
1.8183576 -3.1210418 6.0764194 0.837396 -6.155118 6.0554447 -3.0462534 3.2251172
-2.6759846 9.733171 -10.106809 -0.38080412 -3.236186 0.10022959 6.8754444 -13.123134
9.055849 0.6835658 -9.5655155 19.028801 4.1951785 -15.353426 -12.30122 23.63338
-2.079501 8.098663 4.8235755 -16.424065 -18.808987 35.04129 -1.450583 -17.163494
-2.3272986 -0.12498984 -4.579418 7.0236425 6.2379956 -10.104224 3.489224 4.968927
2.508502 1.1652986 2.731519 -0.41441113 -1.7178404 2.5804398 -2.4654114 1.4487376
1.2226965 1.326485 -0.30289412 2.1420617 0.014580004 -0.15937929 2.2681015 -0.08992732

offset f8 [3]
00000000: 2aa3 e3ff ffff 4fbe ffff ffbf f707 933f
00000010: 7d6a bc7c e8f4 babf
-1.4901161190772573e-08 0.018585082143545147 -0.10529950185120103

weights f4 [512]
00000000: f692 8d3f 2b47 5f3f ee69 323f 2844 4f3f
00000010: fede 723f b224 553e fd95 bc3f 390f 653f
00000020: 0381 8d3f dfdc 0a3f e5b8 c23f f960 7dbf
00000030: 76a4 6f3f 30ab 953f e248 c33d b6f8 f13f
00000040: 6776 7c3f 807e ccbd 5c5f cc3f 55a6 3f3f
00000050: a863 1abe aba8 373e d690 d33f 8475 19be
00000060: b2e2 843f 373d 3140 0c2f 65bf 52f1 8e3e
00000070: 1370 1d40 eec7 12be 2832 893f d3d5 0740
00000080: 0ee4 8b3f 009d 69bd b0ca 963f 20b5 943e
00000090: 86b2 403e 9664 3b40 1242 3e3f 6c26 b33f
000000a0: baf8 a13f 5861 b03f 54b7 303f 4973 f73f
000000b0: 1b62 c83e 89e9 e93d c750 0b3f bb38 503f
000000c0: 8363 a23f 483b 1b3f 6a91 bd3f 626d 23bf
000000d0: 4707 a23f 2889 3b3f 29df 883f 5f20 a43f
000000e0: 1adb 9c3f 30cc 273f 342b e33f 3526 93bd
000000f0: a4a6 e93e 019e 853f 9317 753f 7a2f 873f
00000100: b491 583f b320 2e3f 0b32 913f ffb3 bdbf
00000110: 8750 cf3f 842c e1be 3f45 243f 9f32 bf3f
00000120: e569 3b3f 8cc4 0040 6e28 76c0 42fc a240
00000130: 1fce 373f 7ce0 2640 30eb efbc 5b3b 203e
00000140: 84dc 563e 4a3e 6740 24c8 d2bf 8e69 6940
00000150: 3546 94c0 5c74 13bf 6df9 3440 59d5 d13f
00000160: 6f90 0d40 330d 84c0 9292 e3bd 010b 1940
00000170: df30 a040 86d7 bcbf a0d1 67c0 6503 e83f
00000180: 002f c53e 08df 0a3f 5bf4 e540 0418 1bbe
00000190: f3ad 15c0 168d 6d40 b7f7 de40 00eb 21bf
000001a0: d54d 693f 48cb 4f40 8205 bbc0 b29f c33e
000001b0: ac6a 4dc0 cb51 dabf 290d eabf 9098 d23f
000001c0: c1d5 873f 55ba d5be 0c45 5d40 16ac ff3e
000001d0: 4aa3 b03f 174e ff3f 36b2 ac3f 3df1 113f
000001e0: 6d63 183f 3d60 7640 1b98 d1c0 5912 8540
000001f0: 5309 9b40 ea8b 97c0 6231 de3f 3966 783f
00000200: fa1f 4e3f fc4d 213f 3a06 a2bf 3510 8240
00000210: f223 4dc0 9c7d 5440 76c4 9abe 6978 ad3e
00000220: 6f49 723f 1815 d8bf b62f f93f 97b8 0840
00000230: 8970 b5c0 f14f 40c0 d77f 7740 6cde dd3f
00000240: 6d6c 163f 7249 e3be 4085 14c0 8e19 1fc0
00000250: 3a94 ecc0 7ec4 0040 c0d8 83c0 4bbf 85bf
00000260: 3d6b af3e c474 2140 da5f ef40 fc1c abc0
00000270: 5205 8041 acd2 fd40 0de2 2240 8126 0040
00000280: e5b3 943d 9ebe 0540 c354 0cc0 31f0 9cc1
00000290: 2447 62be 074b 55c1 3ebf d23f 2857 eb3f
000002a0: 439e 0440 daf7 cebf 846e d9bf 3d88 9141
000002b0: 6d32 5b41 40dc f03f fd82 aabf 6e74 9e3d
000002c0: c626 0a3e c2c0 3440 9381 ecbf e6b4 67c0
000002d0: 29a0 ccc0 620a 09bf 7fec e13f b307 803f
000002e0: e516 f33f 27df c7c0 b5f2 5d41 8337 26c0
000002f0: 3001 81c1 772c 8c41 1995 a1c0 52a8 a13f
00000300: 7601 f73e 0bde 7d3f 7ad5 95bf 846c ef3e
00000310: ea43 a3bf 6396 12bf 961a 993f abf5 9b3f
00000320: 4d31 3c3f 3553 8cbe b7cb d540 c4bf 6ec1
00000330: c219 1b41 84c2 3140 673b 2fc0 c014 6d3f
00000340: a7b4 6d3f b73f bb3e 6008 84bf 9b22 0c41
00000350: 763a 8dc0 2410 8e3f 0ac5 fe3f 7af6 5b3f
00000360: f568 e73e a92f 3d3f aff4 59c0 2df3 60c0
00000370: e633 acbf 22fa 13c1 302a ba40 c94b a83f
00000380: 42b8 4f3f a048 013f 6f75 2040 e167 4bc0
00000390: efa8 8a41 c1b1 0e40 34aa 36c0 1b05 21be
000003a0: 32b1 593f 6134 8ec0 8d5c 3b41 0932 f2c0
000003b0: 3783 d6c1 93aa 2841 9f02 2dbf 3873 713f
000003c0: 1628 413f c510 0e40 7e2d 8ec0 00b2 2d40
000003d0: 702d 0341 fff2 5cc0 6c0e 303e 0bd5 313f
000003e0: e51e 723e fcc7 8740 5756 dac0 93fd b3bf
000003f0: ddb9 3341 19a1 4dc1 ecbb 9a40 f03e 5fbc
1.1060474 0.8721797 0.69692886 0.80963373 0.9487151 0.2081478 1.4733273 0.8947635
1.1054996 0.5424327 1.5212675 -0.98976094 0.9361032 1.1692867 0.09535386 1.8904026
0.9861817 -0.099850655 1.5966601 0.7486318 -0.15077078 0.17935435 1.6528575 -0.14986235
1.0381682 2.7693613 -0.8952491 0.27918488 2.4599655 -0.1433408 1.0718431 2.1224258
1.0928972 -0.057034492 1.1780605 0.29044437 0.18818101 2.9280143 0.74319565 1.39961
1.265403 1.3779707 0.69029737 1.9332057 0.3913735 0.114214964 0.5442013 0.81336564
1.2686619 0.6063733 1.4810002 -0.6383878 1.2658471 0.7325616 1.0693103 1.2822379
1.2254364 0.6554594 1.774756 -0.07185022 0.4563495 1.0438844 0.95739096 1.0561364
0.84597325 0.68018645 1.1343397 -1.4820555 1.619645 -0.43979275 0.6416816 1.4937323
0.7320846 2.0119963 -3.8462176 5.093293 0.7179889 2.6074514 -0.02928695 0.15647642
0.20982558 3.6131768 -1.6467328 3.6470675 -4.63357 -0.57599425 2.8277237 1.6393234
2.2119405 -4.126611 -0.111119404 2.3912966 5.0059657 -1.4753273 -3.6221695 1.8126036
0.3851242 0.5424657 7.1860785 -0.1514588 -2.338742 3.7117362 6.9677386 -0.63249207
0.9113439 3.2467823 -5.8444223 0.38207775 -3.2096357 -1.7056211 -1.8285266 1.6452808
1.0612108 -0.41743723 3.4573393 0.4993598 1.3799832 1.9945706 1.3491886 0.57008725
0.5952671 3.849624 -6.5498176 4.1584897 4.844888 -4.7358294 1.735882 0.9703098
0.8051754 0.6300962 -1.265815 4.0644784 -3.205319 3.3201666 -0.30228013 0.33880928
0.946433 -1.6881437 1.9467685 2.1362665 -5.669987 -3.0048792 3.8671777 1.7333503
0.58759195 -0.44391972 -2.320633 -2.4859347 -7.393094 2.011993 -4.1202087 -1.0449003
0.34261504 2.5227518 7.4804506 -5.347288 16.002598 7.931967 2.545047 2.00235
0.07260875 2.0897593 -2.1926734 -19.617281 -0.2209745 -13.330817 1.6464612 1.8385973
2.0721595 -1.6169388 -1.6986852 18.191523 13.699811 1.8817215 -1.3321224 0.07737051
0.13491353 2.824265 -1.8477043 -3.6204162 -6.394551 -0.5353147 1.7650298 1.000235
1.8991362 -6.2459903 13.871755 -2.5971382 -16.12558 17.521711 -5.0494504 1.2629492
0.48243302 0.99166936 -1.1705773 0.46762478 -1.2755101 -0.5726072 1.1961238 1.2184347
0.7351273 -0.27407232 6.6811175 -14.921818 9.693789 2.7774973 -2.7380006 0.92609787
0.9285378 0.36572048 -1.0315056 8.758449 -4.4133863 1.1098676 1.9903882 0.8592297
0.45197263 0.7390085 -3.4055593 -3.5148423 -1.3453338 -9.248568 5.81765 1.3148128
0.8114053 0.5050144 2.5071676 -3.1782153 17.332487 2.2295992 -2.8541384 -0.15724604
0.85036004 -4.443894 11.710095 -7.568608 -26.81407 10.541644 -0.67582124 0.94316435
0.7545179 2.2197735 -4.4430532 2.7139893 8.198593 -3.4523313 0.17193002 0.694657
0.23644598 4.243162 -6.8230395 -1.406176 11.232877 -12.8518305 4.8354397 -0.013625845

offset f8 [3]
00000000: 0000 0000 0000 0000 0000 0088 1f63 b63f
00000010: 0100 0000 62f3 8bbf
0.0 0.08744999952614307 -0.013647809624671938

weights f4 [512]
00000000: c1e8 4a3f 228d ab3f 8aa4 883e 925c a93f
00000010: 93d2 103f d831 483f 42ba 803f 4c4d 743f
00000020: 51d0 a43f 6e01 e9be 75a1 753f 78fb a63e
00000030: 0e5c aa3f ae6d 683f 5920 d53e 134d 703f
00000040: b461 03bf b750 0140 cd72 3e3f 9013 32bd
00000050: aa0d d4be 57ee 09bf 9894 803f 82ca e83e
00000060: 57c3 0c40 e86a 06c0 8089 cd3d 9f61 903f
00000070: ed03 3bbe a0a4 da3f 5d42 aa3f 2286 aebd
00000080: 32b5 ffbe c6c8 5c40 88a3 933f f208 7abf
00000090: 6a76 a440 a5c9 5dc0 69cd 003d bad0 743f
000000a0: caec a93f 6243 6ac0 84f0 2540 c252 3bc0
000000b0: d486 283e 632d ef3f 0b4b a23f a38d dfbd
000000c0: e313 fe3e 0b2b 3840 f8c6 b4bf b042 1b40
000000d0: 3bca 1340 81f1 1ebf 91f7 123f 3f9a 8e3f
000000e0: 223c 753f 84ce 6e3f 7cfa 5d3f c33d 6a3f
000000f0: 02c3 813f 01df 693f 46f2 743f 6a0c 693f
00000100: 1c28 9d3f 0bc8 76bf 6251 ec3f 7ed4 1fbe
00000110: 42d2 b33f 6be1 a93f bd0a ecbd 246e 813f
00000120: 6edc a3bf c962 5c40 07d4 a93f 5ad9 83c0
00000130: 8313 6c40 79d1 eec0 c959 d040 658e 92bf
00000140: 862d 8e40 6e8d 68c0 33db e3bf ab18 9e40
00000150: d384 e93f 9fb9 2641 8bd9 0ec1 f03e 2e40
00000160: ea22 c3c0 e350 c940 8b23 80bf e051 9040
00000170: cdb8 59c1 1c03 09c0 0ad3 6740 a540 c73e
00000180: f543 cd40 1488 90c0 bb8d b9c0 dca8 283e
00000190: e272 7541 cc38 1340 008a 66c0 e07d ed3f
000001a0: 3bf1 8ec0 3eb3 4141 7c38 9140 2815 02c0
000001b0: 8883 fd3f dc76 f1c0 c710 5040 41c9 463f
000001c0: 3ace 5240 4a24 e3c0 7657 3f40 3938 81bf
000001d0: 7eef 1dc0 c98a 9a40 8698 10bf c484 99be
000001e0: b86c a03f 9756 48bd 15f7 3e40 aadc 1bc0
000001f0: 52b2 a240 927d 10c0 add8 c43f 7cac 473f
00000200: c786 8f3e 2868 b53f df00 7dbe 7f73 643f
00000210: 0c82 2cc0 2998 a43f 9f78 cf3f 33bd 8d3e
00000220: 94e7 ee3f 6c31 2b40 1323 cd3e 2107 d740
00000230: e568 1641 020a 0bc0 063d 45c0 7a34 cc3f
00000240: 0884 82c0 315c 4cc1 a16c 3fc1 0b57 dcc0
00000250: 6e5b b9c1 676d 4741 ef55 8ebf 03af 4b3f
00000260: e759 eb40 baef c841 640d f840 aeea ce41
00000270: 456a bbc0 61a1 12c1 533f 3e41 4d4e afc0
00000280: c269 e8c0 88c1 bcc1 673a 123f 2cc8 8fc1
00000290: 62c9 55bf 8100 093f a8c8 babf fddf b1c0
000002a0: 72e0 0741 8a01 88c0 66f0 46c1 2247 e2bf
000002b0: 75cf 8b41 85a9 30c1 e552 8b40 3760 e23f
000002c0: e1e7 fac0 155f 2441 580a d83f 0a41 c2bf
000002d0: 2404 6140 0487 08bf e190 2cbf 1e77 423f
000002e0: 43c4 a03f 20ac a43f 2d44 ce3f 251a afc0
000002f0: ef75 c240 4a46 e5bf 44ae a03f bf05 023f
00000300: 7a5d 0bbe 4471 8e3f e4c7 a1bf 5de3 3240
00000310: afbd f23e 4b3f 073f 9db1 27be 235c d33e
00000320: 42ee 3140 bb8b a4c0 ddd1 a63f 573f dfc0
00000330: 3745 2840 2442 143f 425b 69bf c9e7 dd3f
00000340: 1e85 8dc0 10ab 1641 f1c5 aa41 367d 743e
00000350: b9c7 25c1 9e6c 9f40 650e 9e40 d3fc 9bc0
00000360: 6648 9040 b771 65c1 d939 32c2 a7cd f840
00000370: 2577 f141 d768 a2c1 5aef 15c1 5c89 b440
00000380: 314c 50c0 99d5 4041 65e1 2442 970c eac1
00000390: dd06 cfbe b1f8 8e41 d008 bdc0 9d22 be40
000003a0: 4d3f 4fc0 8963 e8c0 503e 3941 6f19 6ec0
000003b0: a035 773d 3ec6 eac0 deb1 3740 1171 afc0
000003c0: 3c2b 5e41 ac5d 61c0 663c a6c0 656b 0341
000003d0: b732 72c0 2b91 f63f fc4f 11bd ac80 c63f
000003e0: d8ab 12c0 3bdd 71c0 358c 6540 d27f 8540
000003f0: 419e 7fc0 5c7f 2740 a58c 24bf fc94 ba3e
0.79261404 1.3402445 0.26688033 1.3231375 0.5657131 0.78201056 1.0056841 0.95430446
1.2876073 -0.45508903 0.9594949 0.3261373 1.3309343 0.9079236 0.41626242 0.93867606
-0.5132096 2.0205514 0.7439392 -0.043475688 -0.41416675 -0.538793 1.0045347 0.45467
2.1994226 -2.100275 0.10035992 1.1279792 -0.18263216 1.708149 1.3301502 -0.085216776
-0.4994293 3.4497542 1.1534281 -0.976699 5.139455 -3.4654324 0.031445894 0.9563099
1.3275387 -3.6603627 2.592805 -2.9269261 0.16457683 1.8685726 1.2679151 -0.10915687
0.49624547 2.8776271 -1.412322 2.4259453 2.3092182 -0.62087256 0.57409006 1.1140822
0.9579488 0.9328387 0.86710334 0.9150049 1.0137637 0.913559 0.9568218 0.9103457
1.2277865 -0.9639899 1.8462336 -0.15608403 1.404854 1.3271917 -0.11525486 1.0111737
-1.2801645 3.4435294 1.3267831 -4.120282 3.688691 -7.4630704 6.51096 -1.1449705
4.443057 -3.6336322 -1.7801269 4.940511 1.824366 10.420318 -8.928111 2.7225914
-6.098012 6.291124 -1.0010847 4.5099945 -13.607617 -2.1408148 3.6222558 0.38916507
6.4145455 -4.516611 -5.798551 0.16470665 15.340548 2.3003416 -3.6021729 1.8554039
-4.466947 12.10626 4.538145 -2.0325413 1.9805765 -7.545759 3.251024 0.7765084
3.293837 -7.09818 2.9897132 -1.0095283 -2.4677424 4.8294415 -0.5648273 -0.29984105
1.2533178 -0.048910704 2.9838307 -2.4353433 5.0842676 -2.2576642 1.5378624 0.77997565
0.28032514 1.4172411 -0.24707364 0.89238733 -2.6954374 1.2858936 1.6208686 0.2768341
1.8664422 2.6748915 0.40065822 6.71962 9.400609 -2.1724858 -3.0818496 1.5953515
-4.078617 -12.772508 -11.964021 -6.8856254 -23.169643 12.46421 -1.1119975 0.7956392
7.3547244 25.117054 7.7516346 25.86459 -5.8567224 -9.164399 11.89046 -5.478308
-7.26291 -23.594498 0.57120365 -17.97274 -0.8351041 0.53516394 -1.4592485 -5.5585923
8.492296 -4.250188 -12.433691 -1.7677958 17.476297 -11.041387 4.353869 1.7685612
-7.8408055 10.273213 1.6878157 -1.5176098 3.5158777 -0.5333102 -0.6740857 0.7596301
1.2559894 1.2865028 1.6114556 -5.4719415 6.076896 -1.7912076 1.2553182 0.5079002
-0.13609877 1.1128316 -1.2639127 2.7951272 0.47410342 0.5283095 -0.16376348 0.41281232
2.780167 -5.142057 1.3032795 -6.976482 2.6292245 0.5791342 -0.91154873 1.733636
-4.4224997 9.416763 21.346651 0.23875889 -10.36126 4.982009 4.939257 -4.8746123
4.5088377 -14.340262 -44.55649 7.775104 30.183176 -20.301191 -9.370935 5.6417675
-3.2546504 12.052148 41.22011 -29.256147 -0.40434924 17.871431 -5.9073257 5.9417253
-3.2382386 -7.2621503 11.577713 -3.7203023 0.060353875 -7.3366995 2.8702312 -5.482552
13.885555 -3.5213423 -5.194873 8.213719 -3.7843454 1.9263052 -0.03547667 1.5508018
-2.2917385 -3.7791278 3.5866826 4.171853 -3.994034 2.6171484 -0.64277107 0.3644179

offset f8 [3]
00000000: 0000 0000 0000 0000 0c00 0000 0641 55bf
00000010: 6207 cea1 eb51 b6bf
0.0 -0.0012972410768270519 -0.08718750667870048

weights f4 [512]
00000000: 118f 833f a550 443f 5d78 593f f4d4 443f
00000010: bd17 803f a386 533f 7f45 863f e027 543f
00000020: e05b 283f 5796 1f40 e25a 50bf 2e62 2140
00000030: d614 0840 c170 a9be 535e 8b3e 8cd0 9e3f
00000040: c609 7a3f 7879 24c0 48dd b93f c9ca 4ec0
00000050: 9a3e 503f a7c4 803f 5935 dd3f e0f5 83be
00000060: 5c76 e83e 5563 0c40 e275 793f d681 0a3f
00000070: cdd6 8e40 bc8d 3dc0 da3d 0f3f b61a 6a3f
00000080: 6d38 863f 2ac8 4abf 52d0 5c3f f0eb d2bd
00000090: 6510 abbe e17f 1340 5048 033e 5ad2 2bbe
000000a0: c8f5 d63e 8f8b a53f a024 813f 18d4 a5bd
000000b0: fa3c b8bc 3200 62bf cd7e 0a40 be74 673f
000000c0: 433a 643f 0752 0d3f f9ae a4be fdb2 0740
000000d0: 31bb 68bf 63bb 6040 8f43 6abf 1654 8f3f
000000e0: fc55 783f 6aa5 683f 4055 793f 22f6 073f
000000f0: 9650 aa3f 7f5e a83e 434a c53f 2159 793f
00000100: c406 f33e c0e1 1040 ab3f 073e 0d3f ba3f
00000110: e10e 1b40 42f8 73bf c09f 1c3f 286d 943f
00000120: 094e 6540 8bf6 1ec1 fe23 0941 3519 f6c0
00000130: c1da b63d 943c 5f40 9569 ba3f 61b7 90bf
00000140: 7dbf b3c0 1026 4a41 e626 0f40 22c9 e8be
00000150: 390c 9440 7461 f8c0 c990 353f 9e14 c93f
00000160: 221d b540 009a 1e3f d4dd 9dc0 0fd1 9b40
00000170: 2256 0641 032e b63f 5bc0 d5bf e240 c43f
00000180: 5536 3ac0 8b66 b0bf 31f3 28c0 810c 6540
00000190: 03aa 3ec1 9058 5d40 66b0 5bbe fd49 7a40
000001a0: 20a2 e93f 2ddd 2fbf eff9 503f 55c1 a53d
000001b0: 7aa8 3041 c85b 1d3f 5075 6cc0 908d 04c0
000001c0: cc24 1c3e 34c4 033f 7acb 7740 8f2f 9ec0
000001d0: cba1 5140 8463 ffc0 8689 ee40 c847 b73e
000001e0: 7f48 5c3f 6347 623f b73e 67bf 2447 3040
000001f0: 854b b5bf 2111 8740 cce2 abbf f4f3 a33f
00000200: 615c db3f 73c4 c5bf 3871 633e cd69 04c0
00000210: f1d0 2540 db56 13bf 4901 ff3f 810d 39be
00000220: 112e bcc0 9e73 6d41 09b6 e2c0 2240 3741
00000230: cdc7 28bf 1ffe 06bf ed92 5fc0 3e77 c03f
00000240: 4b95 3541 04f5 f4c0 ac0a 9bc1 61b7 8c40
00000250: f6a6 ad40 dcda 49c0 ea49 8d40 df2a 8e40
00000260: 2878 13c1 ba19 8fc1 2cb8 fcc0 c628 bbc0
00000270: a6e3 4cc0 a8f6 2740 7a5b 823f d8e8 53c1
00000280: b060 9d40 bdbd c741 f610 5741 288b ed41
00000290: b4e0 f7c1 320c 7240 237d e840 f53a 47c0
000002a0: 3147 b4bf 40fe 09c1 769a 5cc1 1850 0fc1
000002b0: b7d4 81c1 0fca a341 94fc 1cc1 765d ff40
000002c0: 7c08 a53f 889b 8d3f 9c20 6b40 00e7 6bbf
000002d0: ceb4 6641 1115 b9c0 9ae8 ffbc bd08 cebf
000002e0: 6963 ac3e 39e3 833e b699 a03f 4818 20be
000002f0: c580 d9bf 19a0 0a3f a0fe ef3f 80f3 493f
00000300: 9bed 92bd c880 3ebe da3e 8f40 4c2b 023f
00000310: f3d0 6ebf 9d18 173f 57b5 abbe 68a4 253f
00000320: 0726 8640 bffb 0e40 3050 4ec1 d2be 6a41
00000330: fda5 16c1 bc0d a040 a9be 90bd 07f9 e73f
00000340: 11ea a3c0 1e9e 4cc1 b774 0542 45eb 9cc1
00000350: b1bc 3cc0 05d7 fabf a8be 4f40 13f4 27c1
00000360: 82ca 4c40 4dbc 4b41 5164 f041 a744 1bc2
00000370: 200c 1742 9255 fdc0 6195 1ec1 b241 9341
00000380: da25 063f b380 70c1 6a81 1ec2 133a 5e41
00000390: 495c 6f41 7c48 8fc1 a842 5140 16bf 9cc0
000003a0: 9842 11c0 9079 0041 6873 3b41 3af8 2e41
000003b0: ce2f 93c1 3b45 3841 60c9 c0bd 5771 38c0
000003c0: c0fd 8d3e c247 bcbf 3be7 2abf 25b7 c4c0
000003d0: 80ad ba40 8500 9ac0 2f4b db3f 8333 e63f
000003e0: a8a6 733f 2bdf 933e 32c0 c8be ae42 e13f
000003f0: 1098 753f 7b70 aa3f 5860 e83d 7773 b03e
1.0278035 0.76685554 0.84949285 0.7688744 1.0007244 0.82627314 1.0489959 0.82873344
0.6576519 2.493551 -0.81388676 2.5216174 2.1262717 -0.33093837 0.272204 1.2407393
0.97671163 -2.5699139 1.4520655 -3.231127 0.8134552 1.0060014 1.7281905 -0.25773525
0.454028 2.1935627 0.974455 0.54104364 4.463721 -2.9617758 0.55953753 0.9144701
1.048597 -0.79211676 0.8625537 -0.10298908 -0.33410946 2.30468 0.12820554 -0.16779462
0.4198439 1.2933215 1.0089302 -0.08097094 -0.022490013 -0.8828155 2.1639893 0.9041251
0.891514 0.5520329 -0.32164744 2.1202996 -0.9091063 3.5114372 -0.91509336 1.1197536
0.970062 0.908774 0.97395706 0.53109944 1.3305843 0.32884595 1.5413288 0.97401625
0.474661 2.2637787 0.13207881 1.4550492 2.4227831 -0.95300686 0.6118126 1.1595812
3.582888 -9.935191 8.571287 -7.690577 0.08928443 3.4880724 1.4563471 -1.1305963
-5.617125 12.634293 2.2367492 -0.45465952 4.626492 -7.761896 0.7092405 1.5709417
5.6598063 0.61953735 -4.9333286 4.86927 8.3960285 1.4232792 -1.6699327 1.5332301
-2.9095662 -1.3781294 -2.6398432 3.5788882 -11.916507 3.4585304 -0.2145401 3.910766
1.8252602 -0.6869686 0.8163137 0.08093516 11.041132 0.6146817 -3.6946602 -2.0711403
0.15248412 0.5147126 3.8717942 -4.9433055 3.2755 -7.980898 7.4542875 0.35796952
0.8604812 0.8839018 -0.9033007 2.754342 -1.4163672 4.220841 -1.3428588 1.2808824
1.7137567 -1.5450577 0.22211158 -2.0689576 2.5908778 -0.57554406 1.9922267 -0.18071558
-5.8806233 14.840727 -7.084721 11.453157 -0.6592987 -0.5273151 -3.4933426 1.503639
11.3489485 -7.654909 -19.38021 4.397385 5.426631 -3.153983 4.4152727 4.4427333
-9.216835 -17.887562 -7.897482 -5.848727 -3.2013946 2.6244297 1.0184166 -13.244347
4.9180527 24.967646 13.441641 29.692947 -30.984718 3.7819943 7.2652755 -3.1129735
-1.4084226 -8.624573 -13.78771 -8.957054 -16.228865 20.473661 -9.811665 7.980159
1.2893214 1.1063089 3.6738653 -0.92149353 14.419142 -5.7838216 -0.031238843 -1.6096417
0.33669594 0.25759295 1.2546909 -0.15634263 -1.6992422 0.5415054 1.874958 0.78887177
-0.07174226 -0.18603814 4.4764223 0.50847316 -0.9328758 0.5902193 -0.3353679 0.6470399
4.192142 2.2341154 -12.894577 14.671587 -9.4155245 5.0016766 -0.070676155 1.8122872
-5.1223226 -12.788603 33.36398 -19.614878 -2.9490168 -1.9596869 3.2460117 -10.497088
3.19986 12.733472 30.048983 -38.817043 37.76184 -7.9166956 -9.911469 18.407078
0.52401507 -15.031421 -39.62638 13.889178 14.960031 -17.910393 3.2696934 -4.898326
-2.2696896 8.029678 11.715675 10.935602 -18.398342 11.516902 -0.09413409 -2.8819177
0.27732658 -1.4709399 -0.6675908 -6.1473565 5.833679 -4.8125634 1.7132319 1.798447
0.9517617 0.288812 -0.39209133 1.7598474 0.95935154 1.3315576 0.11346501 0.34463093

offset f8 [3]
00000000: c800 0000 0020 abbe ffff ffbf c67a 823f
00000010: 0000 00a0 680c b2bf
-8.083879947662565e-07 0.009023239836096762 -0.07050184160470963

weights f4 [512]
00000000: d6d8 6a3f a915 993f 4111 ebbd 4367 e53f
00000010: 64bf 6fbe 3777 bf3f 61a5 2b3f f43a 953f
00000020: 43d8 973f db3a ad3e 5506 f53f 9204 bbbf
00000030: 9a79 1940 f035 b3bf 1ec9 0140 4ccd ad3f
00000040: f003 713f 9416 abbf 1e3d cd3f b6c6 d93f
00000050: ebca 4dbe c044 933f f7c8 ebbe 604d 2ebe
00000060: 9728 0c3f 1933 8440 95f6 4cbf fa3d e3bf
00000070: 6235 833e 6c7a 443f 63b0 4040 6bc8 5e40
00000080: 9fa6 b03f 4a20 21c0 b9e6 cc3e 40d5 fa3f
00000090: 7f4a 2d40 7c60 0b3f 525d 8ebf f056 b0bf
000000a0: 7e99 083f fb06 8740 60f1 2bbf 1c70 2f40
000000b0: 4707 56c0 0b4d bb3f 9f54 ed3f f053 0640
000000c0: 1781 bd3f 420a 64bf 6036 0040 38ae 7abf
000000d0: 0721 b73f e24d 803f d0ed 2bbe a72e 373f
000000e0: 711c 853f bc26 603f c900 df3f 8186 a4bf
000000f0: b9cc 0940 a646 9fbf 2b76 e03f 5bdb 533f
00000100: 6ad3 833f a2ed 21bf e120 5540 8171 43c0
00000110: 0512 7140 e1dd 65c0 e3a7 3a40 ec0a 493f
00000120: cf4d d43e e770 e33f 28b3 67c0 9737 293e
00000130: 4603 473f 60b8 0341 18f3 b8c0 24fa d13f
00000140: 5fcd bbbe 6ec2 bf40 dee6 c5bf 74af 8a40
00000150: 111e f1c0 4a6b 04c0 0379 0641 cde5 df3e
00000160: cdd7 1040 9570 e8c0 77e4 45bf f657 f5be
00000170: 4df5 3841 9706 a83d 7bbf 12c1 ff63 ef3f
00000180: d9e3 73bf 0bf0 8b40 0612 4e41 ca42 cbc0
00000190: 3ea8 af40 d41e 9cc0 8266 3f41 0af1 ffbe
000001a0: 2c96 5c40 5ae7 80c0 953d 03c1 4b6c 0140
000001b0: 74bd 14c0 1ff5 d3bf a009 bac0 f44d c03f
000001c0: 129b 33bf a67d 8940 0599 e53f e53e f73f
000001d0: 61da c73f f56d 1740 4fa1 4940 4934 503e
000001e0: ee99 793f 137a f13f dbe4 bbc0 af49 d840
000001f0: bd41 83bf 6773 5440 9729 1dc0 fc1f bf3f
00000200: 11fd d93e 4ccf 1440 a4c0 40c0 0ef9 1c40
00000210: 4efc 1bc0 d931 9940 bf9f 1fc0 8c87 ab3f
00000220: 7cf5 6a3f e709 fcbf 148f 613f 56c7 6b41
00000230: a192 2ac1 2f82 973f 38b8 f340 00a5 01bf
00000240: 9d11 013f cce4 043f bf35 2ac1 e5ea 0f41
00000250: ef6b 90c1 5e4d 3bc1 9266 04c1 ff12 ec3f
00000260: 1444 8d3f 8283 6cbf ee9b 6d40 3f37 2b41
00000270: 84e9 1541 00b4 de41 d053 2e41 b36c 8f3e
00000280: 798f b1bf d4ba 4241 d50b 80c1 66bc 09c2
00000290: 1d7a 08c1 7813 c4c1 81c0 09c1 d836 8f3e
000002a0: b06e 9b3f a993 11c1 61b3 b541 8710 a841
000002b0: e266 dd40 1ae3 bc41 7f7c e33f d0b0 423f
000002c0: ba90 af3f 9532 0340 6e05 f1c0 f0cb 18c1
000002d0: 3675 a2c0 601b 3ac1 c0b6 fe3e 0d94 833f
000002e0: a951 9b3f 7384 4fc0 c30f 2b41 847e 85bf
000002f0: 0787 73c1 bedc f540 b11d b03f 6be3 1ebf
00000300: 14f2 b13e b209 883d bf12 e2bf d97c 9a40
00000310: 35c5 a3c0 0dfa da3f 1c13 583f 7296 663f
00000320: 9c82 253f 85cf 98be d8ca ad40 0ac6 8bc1
00000330: 7ef0 4541 5b5b 07c1 d387 3440 2cfa f0bd
00000340: fc64 4e3e 29f3 953f b194 0abd 56a2 36c1
00000350: d9fe 9441 6884 6541 b60f 0bc1 60b9 7f40
00000360: 390e 643f d13f a8c0 0f62 8241 e3ab e0be
00000370: a6fb 15c2 b523 d6c0 275f 6641 8efc 4cc0
00000380: 256a bd3e c0af c440 cbcb c1c1 33cc 9941
00000390: 27e9 5242 0db1 11c1 e59e 37c1 789a 6a40
000003a0: c995 e53f 4d9a 9ac0 0ea5 6341 1d24 74c1
000003b0: c80b 2cc2 3f4b db40 0a61 dc40 8e94 4cbf
000003c0: 470c acbd 98d1 7940 fdc9 c1c0 3ba8 7940
000003d0: 5001 af41 be8f d8c0 c04d 2ebe 8008 11bf
000003e0: 4060 cb3d 5e28 8c3f 6f10 5dbf 3629 17c1
000003f0: 8d3f 9b41 6acb 45c1 e67c 1d40 755e cc3f
0.91737115 1.1959735 -0.114779 1.7922138 -0.23412853 1.4958256 0.67049223 1.1658616
1.1862873 0.33833966 1.9142557 -1.461077 2.398047 -1.4000835 2.0279002 1.3578277
0.94146633 -1.3366265 1.6034276 1.7013767 -0.20096938 1.1505356 -0.46051762 -0.17021704
0.54749435 4.1312375 -0.80063754 -1.7753289 0.25626665 0.767493 3.0107658 3.4809825
1.3800849 -2.5175958 0.40019777 1.9596329 2.7076719 0.544441 -1.1122229 -1.3776531
0.5335921 4.219602 -0.67165184 2.7412176 -3.3441942 1.4632887 1.8541449 2.0988731
1.480502 -0.8907815 2.0033188 -0.97922087 1.4306954 1.0023768 -0.16789937 0.7155556
1.0399305 0.87559104 1.7422115 -1.2853547 2.1531203 -1.2443435 1.7536062 0.82756585
1.0298893 -0.63253224 3.3301318 -3.0538027 3.7667248 -3.5916674 2.916497 0.7853229
0.41465613 1.776883 -3.6203098 0.16525112 0.7773937 8.232513 -5.7796745 1.6404462
-0.36680123 5.992484 -1.546108 4.3339176 -7.53492 -2.0690484 8.404544 0.43730012
2.2631714 -7.263743 -0.77301735 -0.4791867 11.559888 0.08204382 -9.171748 1.8702391
-0.9526954 4.373052 12.8794 -6.351903 5.4892874 -4.878763 11.962526 -0.49988586
3.4466658 -4.028241 -8.202535 2.0222347 -2.3240633 -1.655918 -5.813675 1.502379
-0.70158494 4.296588 1.7937323 1.9316069 1.5613519 2.3660862 3.1504705 0.20332445
0.97500503 1.8865379 -5.8716865 6.7589946 -1.0254437 3.3195436 -2.4556634 1.4931636
0.42575887 2.3251524 -3.0117579 2.452701 -2.4372745 4.787335 -2.4941251 1.3400741
0.9178083 -1.9690522 0.88108945 14.736166 -10.660798 1.1836604 7.6162376 -0.50642395
0.504175 0.51911616 -10.638122 8.994847 -18.052702 -11.706388 -8.275042 1.8443297
1.1036401 -0.92388165 3.7126422 10.700988 9.369511 27.83789 10.895462 0.28012618
-1.3871909 12.170612 -16.005777 -34.433983 -8.529813 -24.509506 -8.609498 0.2797153
1.2143154 -9.09855 22.712587 21.00807 6.918809 23.61089 1.7772368 0.76051044
1.3716042 2.0499623 -7.531913 -9.549789 -5.076808 -11.631683 0.49748802 1.0279557
1.2134296 -3.242459 10.691348 -1.0429235 -15.220466 7.683196 1.3759061 -0.6206576
0.34755003 0.06642474 -1.7661971 4.82774 -5.117823 1.710756 0.8440416 0.9007331
0.6465242 -0.29845825 5.431011 -17.471699 12.371214 -8.459804 2.82079 -0.117664665
0.2015571 1.1714832 -0.03383321 -11.414633 18.624437 14.344826 -8.691336 3.9956894
0.890842 -5.25779 16.29788 -0.4388114 -37.49575 -6.691859 14.398231 -3.2029147
0.36995044 6.146454 -24.224508 19.224707 52.727688 -9.105725 -11.476293 3.665678
1.7936336 -4.8313355 14.227797 -15.258817 -43.011505 6.8529353 6.8868456 -0.79914176
-0.08400779 3.9034176 -6.055907 3.900893 21.87564 -6.7675467 -0.17021847 -0.56653595
0.099304676 1.0949819 -0.863532 -9.447561 19.40603 -12.362162 2.4607482 1.5966326

offset f8 [3]
00000000: 0000 0000 0000 0000 0000 0080 9354 a53f
00000010: 0100 0000 3bf2 82bf
0.0 0.041660889983177185 -0.009251080453395845

weights f4 [512]
00000000: bd54 3a3f 4f78 963f 272c 4fbf 63be c73f
00000010: 06bd a03d 683b 963d 8270 7e3f 4c99 5a3f
00000020: 1d04 843f c630 b3bf 6e95 3040 a59b ebbf
00000030: 2432 cd3f a03a 50be 56d9 913e 37d7 523f
00000040: 1cba 9d3e 9f64 2f40 1578 0dc0 612c 913f
00000050: b819 c23f 748b bbbe 5953 913f 4a68 673f
00000060: 5f66 733f 60d4 2cbf 1033 c33f 1387 963f
00000070: b72f f3bf 7f1c cb3f 58d8 a1be 6b8a 553f
00000080: 7feb 7f3f 0f1c 4dbf 6e61 c63f 64fc b6bd
00000090: 370e 71bf 9f9b e33f 6466 47be 6c0b 983f
000000a0: 490f ed3e 0c57 1540 6a26 c8bf eb3b 8d3f
000000b0: 11a5 e03f 90dd b5bf c52c af3f 19ce 263f
000000c0: 5a71 563f 48cd 48bf 6e72 e13f ef2e 4ebf
000000d0: f2f3 233f c269 193f 0a6a dc3d 13bd 6f3f
000000e0: 57cd 423f 4f88 883f bd71 3dbf c863 ca3f
000000f0: 6cde 3d3d 2ee9 b23d f819 783f a9d0 563f
00000100: a3d8 813f c513 9abf 9202 0e40 3079 99bf
00000110: fbc8 b03f 6c16 353e 5c4e 4e3e b025 593f
00000120: 968c 8ebf 49aa c740 144c fec0 8113 b240
00000130: 1ff0 13c1 137c 8240 8f7e 21bf 518b 323f
00000140: 7a2e 1840 0d9b 09c0 5acf e3c0 716a 5641
00000150: 40d0 b4c0 9b13 13c0 4f4b 1640 496e 163f
00000160: 4d64 8bbf 4ed6 a840 d5ae 17c1 ca25 0041
00000170: 89a0 b1c0 cba1 fb3f 307f db3f 3736 233f
00000180: f39b 3ebd 72d0 c240 d0d5 f8c0 8e53 d340
00000190: dd02 c7c0 b47b 2140 21ae 873f 89f0 83be
000001a0: 30c0 a03f 8a9c 1cc0 8f4c dcc0 43be 4941
000001b0: 19be 66c0 0abe 1fc0 8709 5540 f375 463f
000001c0: 0355 26be 2374 9a40 4021 d8c0 412a 9b40
000001d0: ef72 1ac1 0436 8940 852b aabf ded1 423f
000001e0: ade9 623f 41cc 85bf b9e9 2440 c5d9 c5bf
000001f0: 9996 d33f 6096 68ba b2b2 ac3e 97b3 5b3f
00000200: 1840 3f3f b23f aa3f da69 1b3f 4b7b 87bf
00000210: 4def 0f40 44b7 fabf ce30 d53f adef 453f
00000220: ec27 5a3f 7eec b3be ad04 f0c0 9116 ff40
00000230: 791c b8bf 39f8 5cbe 1d55 323f 828e 853f
00000240: caa9 1ebd a80c 0c3f 5fc6 7d41 03ab a1c1
00000250: 6e10 a040 343c e73f 06ed 803f 5ff8 e2be
00000260: 23f8 de3f 4948 2dc0 2c4c af40 6126 1fc1
00000270: d07a 3741 d214 9ec0 260d 39c0 f411 2c3f
00000280: ec3a 4c3f e1d6 8ac0 5908 c140 8ac8 17c1
00000290: ac7e 2441 2705 46c0 d12f c4bf b9f9 2c40
000002a0: cd4e 193f 5ec4 3a40 bf36 5241 d90b a5c1
000002b0: 7817 bb40 ec45 9bbf 7af9 9bbf 1ecf 90bf
000002c0: 22b9 5f3e eaca 91be 1dc7 c2c0 fab8 0041
000002d0: c811 c8bf f0bd 2f3f ea46 1240 1570 863f
000002e0: 8988 103f d6cf fb3f 21a3 85bf 9585 83bf
000002f0: 7cf5 4940 8ddc 21c0 4d26 d03f 378b 2c3f
00000300: 709a e33e e055 373e 4918 0fbf c0a4 053f
00000310: 5171 aebe 8013 2540 7ff1 55bf 50f0 653f
00000320: 14dd 733f bb95 a540 9773 1ec1 a6cf 7141
00000330: a167 18c1 bf11 17c0 dfea 8940 fecb e83e
00000340: b697 a1be a279 03c0 e9dd c940 1c21 76c1
00000350: 3ce8 2241 088c 5d40 dabf a6c0 5c7d c23f
00000360: 6317 bf3f 36d0 803e 7fdd 023f f267 1240
00000370: 4e8f 45c0 4547 56c0 99eb 7340 a474 953e
00000380: 03c9 9d3f 4882 e9bf 4957 4940 ca45 1740
00000390: 18d7 05c1 6941 dcbf 906a bf40 d93f 87be
000003a0: e8e0 b73c 66b8 11c0 ac40 b440 90df 43c1
000003b0: bf75 5241 6c1e 8f40 34f0 a1c0 c1f0 f23f
000003c0: fddd 923f 5a1a 8a40 0c12 24c1 3c06 5941
000003d0: 2d10 2cc1 8a3d 31c0 e83e 4f40 42d4 333d
000003e0: 02ce 6c3f d25f 5abf 46dd a03f 0de2 c83f
000003f0: bc0f efbf d626 5440 df8b 5cbf f083 8c3f
0.7278555 1.1755465 -0.80926746 1.5604976 0.07848553 0.073355496 0.99390423 0.8539016
1.0313755 -1.399926 2.7591205 -1.8406874 1.6030927 -0.20334864 0.28486127 0.8235964
0.30806053 2.7405164 -2.2104542 1.1341668 1.5164099 -0.36629832 1.1353561 0.9039351
0.9507808 -0.6751156 1.5249958 1.1759971 -1.8998936 1.5868071 -0.3161037 0.83414334
0.99968714 -0.8012094 1.5498483 -0.089348584 -0.94162315 1.7781867 -0.19472653 1.1878486
0.46300724 2.333438 -1.5636723 1.103391 1.7550374 -1.420824 1.3685538 0.6515823
0.8376671 -0.78438234 1.7613046 -0.80540365 0.64044106 0.59927 0.10762413 0.9364788
0.76094574 1.0666598 -0.74001676 1.5811701 0.046354696 0.08735882 0.96914625 0.8391214
1.0144237 -1.2037283 2.2189069 -1.1990108 1.3811334 0.17684335 0.20147079 0.8482313
-1.1136653 6.239537 -7.946787 5.564881 -9.246123 4.077646 -0.6308374 0.6974383
2.3778367 -2.1500885 -7.1190615 13.400987 -5.650421 -2.2980716 2.3483465 0.5876203
-1.0889984 5.2761602 -9.480184 8.009226 -5.5508466 1.965875 1.714819 0.637546
-0.046535444 6.087945 -7.7761 6.6039495 -6.2190995 2.5231752 1.0600015 -0.2576945
1.2558651 -2.4470544 -6.8843455 12.608951 -3.6053526 -2.495974 3.3287065 0.77523726
-0.16243367 4.826677 -6.754059 4.848908 -9.65306 4.2878437 -1.3294531 0.7610148
0.8863781 -1.0452958 2.5767653 -1.5457083 1.6530334 -0.0008872505 0.33730084 0.8582091
0.74707174 1.3300688 0.6070839 -1.0584501 2.2489808 -1.9587178 1.6655519 0.7731884
0.85217166 -0.35141367 -7.500571 7.9715047 -1.4383689 -0.21579064 0.6966112 1.0434115
-0.038736142 0.5470681 15.86093 -20.208502 5.0020056 1.8065248 1.0072334 -0.44330117
1.7419475 -2.707537 5.4780483 -9.94687 11.4674835 -4.9400415 -2.8914275 0.67214894
0.7977741 -4.3387303 6.032269 -9.48646 10.280926 -3.0940645 -1.5327092 2.7027419
0.59885865 2.9182353 13.138366 -20.630785 5.846615 -1.2130713 -1.2185509 -1.1313207
0.21847966 -0.28475124 -6.086806 8.04516 -1.5630426 0.68649197 2.2855783 1.0502955
0.56458336 1.9672801 -1.0440408 -1.0275141 3.1556082 -2.5290864 1.6261688 0.67399925
0.44453764 0.17903852 -0.5589643 0.52204514 -0.3407083 2.5793152 -0.8357162 0.8981981
0.95259213 5.1745276 -9.90322 15.113195 -9.5253 -2.3604581 4.309921 0.45468134
-0.3156106 -2.0542989 6.3083386 -15.383083 10.181698 3.4616718 -5.2109194 1.5194507
1.4929012 0.25158852 0.51119226 2.2875943 -3.0868716 -3.3481 3.8112547 0.29190552
1.2326969 -1.8242884 3.1459525 2.3636346 -8.365013 -1.7207462 5.981758 -0.264159
0.02244611 -2.2768798 5.6328945 -12.242081 13.153747 4.4724636 -5.0605717 1.8979722
1.1473995 4.3157167 -10.254406 13.564022 -10.753949 -2.769381 3.2382145 0.043903597
0.9250184 -0.8530246 1.2567527 1.5693985 -1.8676677 3.3148704 -0.86150926 1.0977764

offset f8 [3]
00000000: 0000 0000 0000 0000 0100 0000 9c55 7fbf
00000010: ffff 1f12 5a64 c33f
0.0 -0.007650002837181092 0.15149999508867038
